…
Mon Dec  9 08:02:29 2024[0]<stdout>:_________________________________________________________________
Mon Dec  9 08:02:29 2024[1]<stdout>:_________________________________________________________________
Mon Dec  9 08:02:29 2024[0]<stdout>:Layer (type)                 Output Shape              Param #   
Mon Dec  9 08:02:29 2024[1]<stdout>:Layer (type)                 Output Shape              Param #   
Mon Dec  9 08:02:29 2024[0]<stdout>:=================================================================
Mon Dec  9 08:02:29 2024[1]<stdout>:=================================================================
Mon Dec  9 08:02:29 2024[0]<stdout>:input_2 (InputLayer)         (None, 224, 224, 3)       0         
Mon Dec  9 08:02:29 2024[1]<stdout>:input_2 (InputLayer)         (None, 224, 224, 3)       0         
Mon Dec  9 08:02:29 2024[0]<stdout>:_________________________________________________________________
Mon Dec  9 08:02:29 2024[1]<stdout>:_________________________________________________________________
Mon Dec  9 08:02:29 2024[0]<stdout>:vgg16 (Model)                (None, 7, 7, 512)         14714688  
Mon Dec  9 08:02:29 2024[1]<stdout>:vgg16 (Model)                (None, 7, 7, 512)         14714688  
Mon Dec  9 08:02:29 2024[0]<stdout>:_________________________________________________________________
Mon Dec  9 08:02:29 2024[1]<stdout>:_________________________________________________________________
Mon Dec  9 08:02:29 2024[0]<stdout>:global_average_pooling2d_1 ( (None, 512)               0         
Mon Dec  9 08:02:29 2024[1]<stdout>:global_average_pooling2d_1 ( (None, 512)               0         
Mon Dec  9 08:02:29 2024[0]<stdout>:_________________________________________________________________
Mon Dec  9 08:02:29 2024[1]<stdout>:_________________________________________________________________
Mon Dec  9 08:02:29 2024[0]<stdout>:dense_1 (Dense)              (None, 512)               262656    
Mon Dec  9 08:02:29 2024[1]<stdout>:dense_1 (Dense)              (None, 512)               262656    
Mon Dec  9 08:02:29 2024[0]<stdout>:_________________________________________________________________
Mon Dec  9 08:02:29 2024[1]<stdout>:_________________________________________________________________
Mon Dec  9 08:02:29 2024[0]<stdout>:dropout_1 (Dropout)          (None, 512)               0         
Mon Dec  9 08:02:29 2024[1]<stdout>:dropout_1 (Dropout)          (None, 512)               0         
Mon Dec  9 08:02:29 2024[0]<stdout>:_________________________________________________________________
Mon Dec  9 08:02:29 2024[1]<stdout>:_________________________________________________________________
Mon Dec  9 08:02:29 2024[0]<stdout>:dense_2 (Dense)              (None, 40)                20520     
Mon Dec  9 08:02:29 2024[1]<stdout>:dense_2 (Dense)              (None, 40)                20520     
Mon Dec  9 08:02:29 2024[0]<stdout>:=================================================================
Mon Dec  9 08:02:29 2024[1]<stdout>:=================================================================
Mon Dec  9 08:02:29 2024[0]<stdout>:Total params: 14,997,864
Mon Dec  9 08:02:29 2024[0]<stdout>:Trainable params: 283,176
Mon Dec  9 08:02:29 2024[0]<stdout>:Non-trainable params: 14,714,688
…
